summary
"Model: ""plant_disease_cnn"""
┏━━━━━━━━━━━━━━━━━━━━━━━━━━━━━━━━━┳━━━━━━━━━━━━━━━━━━━━━━━━┳━━━━━━━━━━━━━━━┓
┃ Layer (type)                    ┃ Output Shape           ┃       Param # ┃
┡━━━━━━━━━━━━━━━━━━━━━━━━━━━━━━━━━╇━━━━━━━━━━━━━━━━━━━━━━━━╇━━━━━━━━━━━━━━━┩
"│ plant_augmentation (Sequential) │ (None, 224, 224, 3)    │             0 │"
├─────────────────────────────────┼────────────────────────┼───────────────┤
"│ rescale_0_1 (Rescaling)         │ (None, 224, 224, 3)    │             0 │"
├─────────────────────────────────┼────────────────────────┼───────────────┤
"│ conv2d (Conv2D)                 │ (None, 224, 224, 32)   │           864 │"
├─────────────────────────────────┼────────────────────────┼───────────────┤
"│ batch_normalization             │ (None, 224, 224, 32)   │           128 │"
│ (BatchNormalization)            │                        │               │
├─────────────────────────────────┼────────────────────────┼───────────────┤
"│ activation (Activation)         │ (None, 224, 224, 32)   │             0 │"
├─────────────────────────────────┼────────────────────────┼───────────────┤
"│ conv2d_1 (Conv2D)               │ (None, 224, 224, 32)   │         9,216 │"
├─────────────────────────────────┼────────────────────────┼───────────────┤
"│ batch_normalization_1           │ (None, 224, 224, 32)   │           128 │"
│ (BatchNormalization)            │                        │               │
├─────────────────────────────────┼────────────────────────┼───────────────┤
"│ activation_1 (Activation)       │ (None, 224, 224, 32)   │             0 │"
├─────────────────────────────────┼────────────────────────┼───────────────┤
"│ max_pooling2d (MaxPooling2D)    │ (None, 112, 112, 32)   │             0 │"
├─────────────────────────────────┼────────────────────────┼───────────────┤
"│ conv2d_2 (Conv2D)               │ (None, 112, 112, 64)   │        18,432 │"
├─────────────────────────────────┼────────────────────────┼───────────────┤
"│ batch_normalization_2           │ (None, 112, 112, 64)   │           256 │"
│ (BatchNormalization)            │                        │               │
├─────────────────────────────────┼────────────────────────┼───────────────┤
"│ activation_2 (Activation)       │ (None, 112, 112, 64)   │             0 │"
├─────────────────────────────────┼────────────────────────┼───────────────┤
"│ conv2d_3 (Conv2D)               │ (None, 112, 112, 64)   │        36,864 │"
├─────────────────────────────────┼────────────────────────┼───────────────┤
"│ batch_normalization_3           │ (None, 112, 112, 64)   │           256 │"
│ (BatchNormalization)            │                        │               │
├─────────────────────────────────┼────────────────────────┼───────────────┤
"│ activation_3 (Activation)       │ (None, 112, 112, 64)   │             0 │"
├─────────────────────────────────┼────────────────────────┼───────────────┤
"│ max_pooling2d_1 (MaxPooling2D)  │ (None, 56, 56, 64)     │             0 │"
├─────────────────────────────────┼────────────────────────┼───────────────┤
"│ conv2d_4 (Conv2D)               │ (None, 56, 56, 128)    │        73,728 │"
├─────────────────────────────────┼────────────────────────┼───────────────┤
"│ batch_normalization_4           │ (None, 56, 56, 128)    │           512 │"
│ (BatchNormalization)            │                        │               │
├─────────────────────────────────┼────────────────────────┼───────────────┤
"│ activation_4 (Activation)       │ (None, 56, 56, 128)    │             0 │"
├─────────────────────────────────┼────────────────────────┼───────────────┤
"│ conv2d_5 (Conv2D)               │ (None, 56, 56, 128)    │       147,456 │"
├─────────────────────────────────┼────────────────────────┼───────────────┤
"│ batch_normalization_5           │ (None, 56, 56, 128)    │           512 │"
│ (BatchNormalization)            │                        │               │
├─────────────────────────────────┼────────────────────────┼───────────────┤
"│ activation_5 (Activation)       │ (None, 56, 56, 128)    │             0 │"
├─────────────────────────────────┼────────────────────────┼───────────────┤
"│ max_pooling2d_2 (MaxPooling2D)  │ (None, 28, 28, 128)    │             0 │"
├─────────────────────────────────┼────────────────────────┼───────────────┤
"│ conv2d_6 (Conv2D)               │ (None, 28, 28, 256)    │       294,912 │"
├─────────────────────────────────┼────────────────────────┼───────────────┤
"│ batch_normalization_6           │ (None, 28, 28, 256)    │         1,024 │"
│ (BatchNormalization)            │                        │               │
├─────────────────────────────────┼────────────────────────┼───────────────┤
"│ activation_6 (Activation)       │ (None, 28, 28, 256)    │             0 │"
├─────────────────────────────────┼────────────────────────┼───────────────┤
"│ conv2d_7 (Conv2D)               │ (None, 28, 28, 256)    │       589,824 │"
├─────────────────────────────────┼────────────────────────┼───────────────┤
"│ batch_normalization_7           │ (None, 28, 28, 256)    │         1,024 │"
│ (BatchNormalization)            │                        │               │
├─────────────────────────────────┼────────────────────────┼───────────────┤
"│ activation_7 (Activation)       │ (None, 28, 28, 256)    │             0 │"
├─────────────────────────────────┼────────────────────────┼───────────────┤
"│ max_pooling2d_3 (MaxPooling2D)  │ (None, 14, 14, 256)    │             0 │"
├─────────────────────────────────┼────────────────────────┼───────────────┤
"│ dropout (Dropout)               │ (None, 14, 14, 256)    │             0 │"
├─────────────────────────────────┼────────────────────────┼───────────────┤
"│ global_average_pooling2d        │ (None, 256)            │             0 │"
│ (GlobalAveragePooling2D)        │                        │               │
├─────────────────────────────────┼────────────────────────┼───────────────┤
"│ dense (Dense)                   │ (None, 256)            │        65,792 │"
├─────────────────────────────────┼────────────────────────┼───────────────┤
"│ dropout_1 (Dropout)             │ (None, 256)            │             0 │"
├─────────────────────────────────┼────────────────────────┼───────────────┤
"│ predictions (Dense)             │ (None, 38)             │         9,766 │"
└─────────────────────────────────┴────────────────────────┴───────────────┘
" Total params: 3,748,248 (14.30 MB)"
" Trainable params: 1,248,774 (4.76 MB)"
" Non-trainable params: 1,920 (7.50 KB)"
" Optimizer params: 2,497,554 (9.53 MB)"
""
""
